Pytorch101/model/mnist_model.pth (torch, 205744 bytes, 4 tensors)

model.0.weight f4 [64, 784]
00000000: 93b4 3a39 d351 fb3b 6ab3 663c 8cca 0e3d
00000010: fee8 d43c 81ae 43bb 85fc a3bc 4caa d53c
00000020: c019 91bc b08a 943c dc3d d93b fa71 0abd
00000030: 9fc0 a0bc 5add ccbc b43b d4bc 0aa5 06bd
00000040: d398 ee3c 758c 92bc e7f4 9e3c f59c e83c
00000050: 45a5 0fbd 0056 a9bb f3c5 b3bc 0e9d 103d
00000060: 87fc ba3c ee36 6abc 012c efba 033b adbc
00000070: 576a 0ebc 3cbf 1f3c c138 d13c a3ee b4bc
00000080: 5350 e13c ffe3 ed3c 032e 4ebc 1f6f 493c
00000090: bf6c 9dbb 637d 83bc 918a fdbb 32cb 7cbc
000000a0: cbf6 e03b 2412 9dbc 441f e63b 244d 9fbc
000000b0: ad7b 0e3c f657 613c d438 fbbc 5d16 003d
000000c0: 5f48 013d adc7 0d3d 5fb3 54bc 097f b3bc
000000d0: eed3 c93c a7a8 053d e349 8a3c ca86 17bc
000000e0: 3c86 0f3c 4525 9b3c ca48 d6bc b90b d73b
000000f0: 9521 9c3b ddd0 a23a 0262 f63b 0dfa 1939
00000100: 505c 01bd 2327 a3bc fbda 7ebc e2e7 113c
00000110: a2b4 e2bc 578b e4bc c1b4 163d 1cf3 563a
00000120: 0cad 063c da98 853c 784c 15bb 2199 433b
00000130: d9f6 003d 80c6 073c bd2a 1fbb 9d98 853b
00000140: 65db d93b 6c1a 6ebc da3d b03c f1d4 fdbc
00000150: 4a92 3d39 e59b bebb 0917 b4ba b952 9abc
00000160: bc63 b83b 5bfc e93c b114 03bd 903e 6e3c
00000170: a75b a5bc e424 59bc 14f5 efbc 6cb3 08bc
00000180: 1f81 f0bc 17bf 2e3c 6ee5 e6bc 962b b1bc
00000190: 5144 8dbb 3531 a83c 9e57 0b3c dcd5 b8bc
000001a0: 9f24 143c 2233 f739 9d2a 473c cc6a f0bc
000001b0: 76b5 09bd 5cb5 db3c c9b9 c2bc dc06 9eb9
000001c0: 3767 8e3b 40b3 4e3c 8e00 9bbc 5c8e d739
000001d0: 809a be3b 9f84 763c 4a3a 3b3c 86e0 e83c
000001e0: 79d4 923c 0fb5 a2bc d6cf efbc bb99 583c
000001f0: 1431 6a3c d100 5bbc a0ea 1a3d 4c04 183d
00000200: 3eda 153c 4d24 58bc 1607 3d3c db11 4d3d
00000210: d45e 9f3c 8f07 5f3c 61a6 a6bc 1d1d adbb
00000220: 2ac3 003d e80d a03c c219 b6ba 50d9 4fbc
00000230: ee84 d23c 8eca f23c 1e2a 483c e732 ab3c
00000240: 49b7 9e3c 5363 c53c 7ac9 44bc 4be1 223c
00000250: b7bd 923c 34a5 083d b6a8 cbbc 80fc 97bc
00000260: 7be5 8fbc a6da a33c 02d2 d1bc e8f1 2cbd
00000270: d247 ccbc 19a0 3dbc 7497 0bbd c480 e23c
00000280: bda2 083d 81e5 f8bc 47e0 b33c 7641 073c
00000290: ae3f f4bc a129 a03c db9e a23c d6ee 38bc
000002a0: 13aa c5bc 28ee febc 56db 883c cd05 7a3c
000002b0: e317 9abb 9ca3 8fbc 702e 303c a608 0bbd
000002c0: c910 1abd 575f ecbc 1675 dfbb 4576 36bd
000002d0: 2306 08bd 18b9 113d 9062 293d aa86 0b3b
000002e0: 49f9 df3b 02f2 ba3c 16f2 c5bc b51c c5bb
000002f0: 004c 07bc 55db d6bb 5a3a 8bbc fe70 aabb
00000300: 744c 653c a3e1 99bb d23a c83c c862 a53c
00000310: 65f2 e43c 943d c73c 16af 0d3c 5fe8 853c
00000320: 23f4 2b3c 3111 bbbc 8caf 8a3c c0b4 10bd
00000330: e527 84ba 75fa e5bc 27dc a639 3611 43bd
00000340: e87b edbb 77e1 923d b588 153d cf3c 693d
00000350: c41e 4c3d 4da6 8e3c ae4b f73c 8469 b83a
00000360: 45dd 1b3c 8dcd 17bc da5e 0cbd f82c 62bd
00000370: 996c 59bd 2b02 9ebc 0fe6 bd3c 20d7 c33c
00000380: 3a08 e83c 87e3 073d db61 93bc 3431 813c
00000390: e877 fb3c 3678 88bb 010e ca3c 5c13 293c
000003a0: a0de 1f39 d26c 58bd 04cc 353b ae28 c03b
000003b0: 2a7c b43c e326 903d dfbc 843d 922b 9d3d
000003c0: 2676 a83c 9933 493c 704f 4b3d dc74 42bc
000003d0: a204 0fbc 8efd 56bd 22d7 a4bd 88ae 0cbd
000003e0: 0c30 c5bc 21b0 2dbd 4c96 d93c f695 0c3d
000003f0: 2002 9abb e352 ae3b 6afd 8abc 6090 67bc
0.00017805611 0.0076696663 0.014080862 0.034861133 0.025990006 -0.002985865 -0.020017872 0.02608218
-0.017712474 0.018132538 0.0066296887 -0.033800103 -0.019623099 -0.025007892 -0.025907375 -0.032872237
0.029125607 -0.01788924 0.019403888 0.028395155 -0.035069723 -0.0051677227 -0.021944975 0.03530603
0.022825493 -0.014295323 -0.0018247367 -0.021146303 -0.008692346 0.009750184 0.025539758 -0.022086447
0.027504122 0.029039381 -0.012584212 0.01229456 -0.0048042233 -0.016051 -0.0077374657 -0.015429305
0.0068653575 -0.01917369 0.00702277 -0.019445963 0.008696479 0.013753882 -0.030666746 0.031271327
0.03156316 0.034614254 -0.0129822185 -0.021911161 0.024637189 0.032631543 0.016880935 -0.009248445
0.008760031 0.01893867 -0.026157755 0.0065626767 0.0047647455 0.0012421865 0.0075190077 0.00014684368
-0.031582177 -0.019916123 -0.015555139 0.008905383 -0.027674023 -0.027898474 0.036793474 0.0008199678
0.0082199685 0.016308237 -0.0022781175 0.002984591 0.031485412 0.008287072 -0.0024286949 0.004077031
0.0066484683 -0.014532667 0.021513868 -0.030985327 0.00018078942 -0.005816924 -0.0013739775 -0.018838273
0.0056271236 0.028562715 -0.032002155 0.014541283 -0.020185305 -0.013253424 -0.029291667 -0.008343559
-0.029358445 0.010665677 -0.028185572 -0.021627229 -0.0043111225 0.020531276 0.008504776 -0.022562914
0.009041934 0.00047149608 0.012156156 -0.0293478 -0.03362032 0.026819877 -0.02377023 -0.0003014122
0.0043458003 0.012615979 -0.018921163 0.00041114062 0.0058167577 0.015046268 0.011427471 0.028427374
0.01792358 -0.019861726 -0.029273909 0.013220246 0.014293928 -0.013366894 0.037821412 0.037113473
0.009146271 -0.0131922485 0.011537334 0.050065856 0.019454397 0.013612642 -0.020343008 -0.0052830116
0.031436123 0.019537881 -0.0013893174 -0.012686089 0.025698151 0.029637601 0.012217073 0.020898296
0.019374507 0.024095213 -0.012010926 0.009941409 0.017912729 0.033360675 -0.024860721 -0.018553019
-0.01756548 0.02000172 -0.025612835 -0.042222887 -0.02493659 -0.011573815 -0.034079984 0.02764929
0.033358324 -0.030382873 0.02195753 0.008255353 -0.029815521 0.0195511 0.019851139 -0.011287412
-0.02412895 -0.031119421 0.01670615 0.015260172 -0.0047025546 -0.01753407 0.010753259 -0.033943795
-0.037613664 -0.028854055 -0.0068193777 -0.044546384 -0.033208977 0.03557691 0.041353762 0.0021289983
0.006835137 0.022820476 -0.024163287 -0.006015385 -0.008257866 -0.006556908 -0.016995598 -0.005201458
0.013995279 -0.0046960874 0.02444211 0.020188704 0.027947614 0.024321355 0.008647701 0.016346155
0.010495218 -0.022835346 0.01692941 -0.035328627 -0.001008269 -0.028073529 0.00031826014 -0.047623836
-0.007247437 0.0717191 0.036507327 0.056942757 0.049834028 0.017413283 0.030187454 0.0014069532
0.009513204 -0.009265316 -0.034270145 -0.055218667 -0.053082082 -0.019288143 0.02318099 0.02390629
0.028324235 0.03317597 -0.017990997 0.015770532 0.030696824 -0.004164721 0.02466488 0.010319557
0.00015246356 -0.052838154 0.002774001 0.0058642244 0.022031862 0.07038667 0.06481337 0.07674326
0.02056415 0.012280368 0.049636304 -0.011868682 -0.008729132 -0.052487902 -0.08048846 -0.034346133
-0.024070762 -0.042404298 0.026560925 0.0343227 -0.0046999604 0.0053199395 -0.01696654 -0.014133543

model.0.bias f4 [64]
00000000: 3eab 0e3e 2f1c 993b 01ae 2b3d 62a5 373d
00000010: d4ad 8b3d b0d7 6bbd 18a3 c93d dd28 273d
00000020: 34d3 c03c abca debc 93d1 0dbd 49a0 d6bc
00000030: a670 63bc a5ad 5e3d 8db8 b1bc 19fc 51bc
00000040: a388 633d 2c91 4c3d 0cd2 633a 52ab 083d
00000050: 7a31 cd3c 5e21 ba3c 7697 13bb 69b0 873d
00000060: 1541 0c3c 7899 473c 5fd2 8bbd 74d6 643d
00000070: cda1 ed3c adb4 843d ef2c 473d e5ae 3c3d
00000080: 8028 a7bc 6254 833d 1ce6 03bc 5b02 6d3d
00000090: f353 3d3d a516 b23d b299 ba3c c866 363d
000000a0: 1593 173d 1e30 b13d bedc 15bd 9103 913d
000000b0: a64c 003d 5b8e 29bc 8204 5e3d 011c 973c
000000c0: c8ec cb3d f5bb 31bc d327 cdbc 28fd ee3c
000000d0: 6a3b cfbc 9e01 33bc aef3 953d 4829 2f3b
000000e0: 4335 12bd 19ab 983d b4f5 9b3d 5057 593d
000000f0: 8a8b 85bc fcd4 2d3d ea22 313d a6f0 433d
0.13932511 0.004672549 0.04191399 0.044835456 0.068202645 -0.057578743 0.09845561 0.040810455
0.02353821 -0.027196249 -0.034623694 -0.026199477 -0.013881838 0.05436482 -0.021694446 -0.012816452
0.05555023 0.049943134 0.0008690662 0.03336651 0.025048006 0.022720989 -0.0022520698 0.066254444
0.008560439 0.012182586 -0.068272345 0.05586858 0.029007817 0.06479774 0.048626836 0.04606523
-0.020405054 0.06412579 -0.008050468 0.057863574 0.04622264 0.08695725 0.022778366 0.044531614
0.037005503 0.08651756 -0.03658747 0.07080758 0.031323098 -0.010348882 0.054203518 0.01844597
0.09957272 -0.010848035 -0.025043404 0.029173449 -0.025296886 -0.010925679 0.07321869 0.0026727486
-0.035695326 0.07454509 0.076152235 0.053061783 -0.016301889 0.042439446 0.043246187 0.047836922

model.2.weight f4 [10, 64]
00000000: ad23 adbe e936 ad3c 5003 123d 2a43 b53d
00000010: 9376 8a3e b127 62bd 0c2e 1ebd 306d 53be
00000020: 93c7 15bd e5ba 593e 67f9 c2bc 363a 94be
00000030: c351 e53d 2669 a6bd f052 a1bd 4af0 c43d
00000040: c7fd 5cbe b82f 123e 6a98 5d3e 2685 0ebe
00000050: bc43 99bc 224b 7abe 483e cf3c abc1 3a3e
00000060: 3a7b 85be 877a eb3d 2e48 e73d 295e 8bbe
00000070: e331 993d 2c9c 1ebe 1107 963e f339 9cbe
00000080: 3fa1 13bd 101a 20be 62ff 1c3e 9b21 933e
00000090: cb25 bcbe f7df a73e c913 a03e 2329 0bbd
000000a0: 7e9f 1cbe 21ff 613e d62b 11bd e91f 2fbe
000000b0: be5d 333e 302f 963e a972 7c3e aa7c da3e
000000c0: 0d82 97bd cb1e 54bd 71b7 14bd bb7e 8dbe
000000d0: 516f cfbd 70ab ec3d e9af 073e 9a85 803d
000000e0: 6600 be3d a34e 8f3d bfdc 743d 13de 493e
000000f0: c936 c63e d12f 97be 201e 74be 914b abbe
00000100: e76a d13e 49b1 babd 0058 ef3d 251b 24be
00000110: 9877 9ebe 169f 833d 5618 62be 1671 13be
00000120: 6f69 4cbe aa20 b4be 9e18 013e 5e6e 333e
00000130: b130 953c c908 1b3e 1377 8abe f3d5 c0bd
00000140: ea04 d63e 55dd 2e3c 65c6 1bbe 0f7a 8abe
00000150: df54 1e3e 341e 7e3e 6233 46be 639f 34be
00000160: 1722 12be d1dc 06be ee9a 37be c381 a33e
00000170: 2ecc 303e 46c1 e7be 2030 78be fa71 083f
00000180: 1382 52bd 7af3 e83d 4b99 223e 5b2a 76be
00000190: ef3b 4a3e cfef 273e 05b2 d6bd eb6a f83d
000001a0: 73e5 7f3e 1e0b bdbd bbfc 243e da67 f6ba
000001b0: 17fd 90be 9a36 a1be 349d d83c 16c9 3fbe
000001c0: eea8 e13d c4fd b2ba 78a7 68be 1e7a f7bd
000001d0: 9149 f2bd a735 e43d 8ed5 6fbc 6a9d 653e
000001e0: ef1e 1bbe a632 8cbe d5bc dd3d 7a6f 6bbe
000001f0: a102 8bbd 59d8 24be 8534 983e 5a00 653e
00000200: c3bd cd3c cf51 e63c a4cd 0e3d e74f 503e
00000210: afe5 603d 56e8 8d3d 8350 43bd e2fb 813c
00000220: e915 2dbe c552 ca3e 18ff a13d 12ac 0c3f
00000230: 948d babd 531e 45be f89f db3e 17bc 493d
00000240: fab6 e83d 913c e03c ab00 b93d 5463 523e
00000250: 3c5b 57bc bf8d cbbc 845b 523d e4a2 1f3e
00000260: 84ce 2fbe 53bf d33e f8e9 07be 78a0 fbbd
00000270: 66a6 bd3c d663 a3be dc39 51be 52f9 0fbe
00000280: f68d 68bd d0dd 3b3d 6576 773e 2a25 92be
00000290: 3066 bf3d 76e2 473e 4eac 8a3e a522 953c
000002a0: 2672 90bd 2499 adbe dc4b 07bd f6f0 b13c
000002b0: 0bfd 00be 3a0a b5be a8da 143e 27d4 07bd
000002c0: 8755 5dbd 9c11 053e 70a2 6abe 950a 903e
000002d0: 00e4 e53d 0c1f 59bd b198 ccbc 1611 ea3d
000002e0: f726 6bbd ba0a 2fbd 9036 473d 7ad3 443e
000002f0: 256e a43e 38ee a7be 0bff 86bd 6762 233e
00000300: 3455 a8bc 02cd 8abd 7fb7 633d dd36 3e3e
00000310: 85b7 68bd 5609 2cbd 5a1e 003f 3249 80be
00000320: cb1a 003d 3ba8 e0be f504 e2bd d5b7 cb3e
00000330: 2234 ffbd ee24 aabc e9d5 943e 4c72 0abe
00000340: ce56 213e fc0b aebe 83ac 1e3e 8d56 83bd
00000350: 505e 8abd 6617 833e 50a5 55be 6dcb 6abe
00000360: 20b7 5a3e fc26 f6bd 32ab 7cbc 8425 53be
00000370: 8075 933e 0c38 393e 63ba 263e 337c 5a3e
00000380: afaf ec3d cb8c b33e 7a1e 453e f388 3f3d
00000390: 5786 d63d f32e 7d3c 4d97 4a3d 4004 f6bd
000003a0: 802e 4fbe 1de5 8abd b74a 09be 4f30 bcbc
000003b0: cbff 7e3e ec5a 0bbe cc36 c73c 6ce7 bf3e
000003c0: 94b5 7bbe 52bd 513c cad8 113e 7a20 293e
000003d0: 61bd 39bd abf1 18bb a4c0 063e c788 283e
000003e0: 4d0c 10bd c2df 92be 01e9 0cbe 8d45 2b3e
000003f0: 0382 cdbb 354e 9abd 30a3 fcbd 538d 013e
-0.3381628 0.021144347 0.03564769 0.08850701 0.2704359 -0.055213634 -0.038618132 -0.2064712
-0.036567282 0.21262701 -0.023800565 -0.2895066 0.111972354 -0.08125524 -0.07877147 0.09616144
-0.21581183 0.14276016 0.21640173 -0.1391798 -0.018709056 -0.24442723 0.025298253 0.18237941
-0.26070577 0.114979796 0.11293064 -0.27220276 0.07480218 -0.15489262 0.29302266 -0.30512962
-0.036042448 -0.15634942 0.15331796 0.28736576 -0.36747584 0.3278806 0.31265095 -0.033974778
-0.15295216 0.2206998 -0.035442196 -0.17102017 0.17516229 0.29332876 0.24653114 0.42673236
-0.07397852 -0.05178718 -0.036307756 -0.2763575 -0.10128654 0.115561366 0.13250698 0.062754825
0.0927742 0.06997421 0.059780832 0.19713621 0.38713673 -0.2952867 -0.23839617 -0.3345609
0.40901873 -0.09115846 0.116867065 -0.1602598 -0.30950618 0.064268276 -0.22079596 -0.14398608
-0.19962095 -0.3518117 0.12607047 0.1752257 0.018211694 0.1514007 -0.2704397 -0.094158076
0.41800624 0.010672887 -0.152124 -0.27046248 0.15462063 0.24816209 -0.19355538 -0.17638926
-0.14270817 -0.13170172 -0.17930195 0.31934938 0.17265388 -0.45264643 -0.24237108 0.53298914
-0.05139358 0.113745645 0.15878789 -0.24039595 0.19749425 0.16400073 -0.10483173 0.12129768
0.24989872 -0.09230636 0.16112034 -0.0018799261 -0.28318092 -0.3148697 0.026442148 -0.18729052
0.11018549 -0.001365595 -0.22720134 -0.12083839 -0.11830438 0.11143046 -0.014638318 0.2242333
-0.15148519 -0.27382392 0.108270325 -0.22991744 -0.06787611 -0.16098155 0.2972757 0.22363415
0.0251149 0.028115181 0.034864083 0.2034298 0.054906543 0.0692908 -0.047684204 0.015867177
-0.1690289 0.39516273 0.079099834 0.5495006 -0.09109035 -0.19249849 0.42895484 0.049251642
0.11363025 0.02737263 0.090333305 0.20545703 -0.013144311 -0.024847863 0.051356807 0.15589482
-0.17168623 0.41356906 -0.13272846 -0.12286466 0.023150634 -0.31912106 -0.20432228 -0.14059952
-0.05677601 0.045865834 0.24166258 -0.2854398 0.093456626 0.19519982 0.27084583 0.018204996
-0.07053022 -0.339059 -0.03303133 0.021721344 -0.12596528 -0.35359365 0.14536536 -0.03316131
-0.054036643 0.12994999 -0.22913527 0.28133073 0.11225128 -0.053008124 -0.024975153 0.1142904
-0.057410207 -0.04273484 0.04863602 0.19221297 0.32115284 -0.32798934 -0.06591614 0.15955506
-0.02054844 -0.067773834 0.055594917 0.18575616 -0.056815643 -0.04200109 0.5004631 -0.25055844
0.03127555 -0.4387835 -0.11036102 0.3978869 -0.124611154 -0.020769563 0.2906945 -0.13520163
0.1575577 -0.33993518 0.15495495 -0.064129926 -0.0675627 0.2560379 -0.20863843 -0.22929163
0.21358919 -0.120191544 -0.0154216755 -0.2061978 0.28800583 0.18087786 0.16282038 0.2133644
0.115569465 0.35068354 0.19249907 0.046761464 0.10474842 0.015453088 0.049460698 -0.120125294
-0.20232582 -0.06781981 -0.13407408 -0.022972254 0.24902265 -0.13608903 0.024318121 0.37481248
-0.24580985 0.012801485 0.14242855 0.16516295 -0.04534662 -0.0023337405 0.13159424 0.16458426
-0.03516798 -0.2868634 -0.13760759 0.1672575 -0.006271602 -0.07534448 -0.12335813 0.12651567

model.2.bias f4 [10]
00000000: 2f9a 68be c7cc 8b3e 5f3b d5bd 99ff f2bd
00000010: f954 023e 7e82 533e 07dc 003e 1456 053e
00000020: 3655 57be 2a3d a63d
-0.22715066 0.2730467 -0.10411715 -0.11865158 0.12727727 0.20655248 0.12583934 0.13021117
-0.21028599 0.08117135
