Pytorch101/model/mnist_model_jitted.pt (torch, 215568 bytes, 4 tensors)

weight f4 [64, 784]
0	0xbc09fea0	-0.008422524
1	0xbcf4efd8	-0.029899523
2	0x3c93708e	0.017998006
3	0xbce7ec83	-0.02831102
4	0x3c32be61	0.010909648
5	0xbca2e3d7	-0.019884033
6	0x3c56e7b3	0.013116765
7	0xbc88b060	-0.016685665
8	0xbbc01613	-0.0058620065
9	0xbc7f392e	-0.015577598
10	0xbcb3d03a	-0.021949876
11	0xbcfcf2f1	-0.030877562
12	0x3b428a9e	0.0029684673
13	0xbc972043	-0.018448
14	0xbc8fe731	-0.017566295
15	0x3cec5452	0.0288488
16	0x3c2a2ba5	0.010386382
17	0xbcd2d3bc	-0.025735728
18	0xbb4f5dee	-0.003164168
19	0xba6c3e01	-0.0009011925
20	0x3b24faee	0.002517398
21	0xbcc31c6e	-0.023817267
22	0x3ced209a	0.02894621
23	0xbc675658	-0.014119707
24	0xbcda3391	-0.026635917
25	0x3d08ee63	0.03343047
26	0x3c56066a	0.013063053
27	0x3cc69d01	0.024244787
28	0xbcd2e61e	-0.025744494
29	0x3b951c93	0.0045505255
30	0xbcd451d1	-0.02591792
31	0x3af1a8dc	0.0018437165
32	0xbcb5c846	-0.022190224
33	0x3c57c43d	0.013169345
34	0xbd01e8b8	-0.03171608
35	0xbc9c1d39	-0.019056903
36	0x3ca99002	0.020698551
37	0x3cc5cacd	0.024144555
38	0x3cb32ee5	0.021872947
39	0xbd073a22	-0.033014424
40	0x3c84e5b1	0.016222807
41	0xbcfa16ff	-0.030528544
42	0xbcf9a47f	-0.030473946
43	0xbc1819a2	-0.009283455
44	0xbcbf224c	-0.023331784
45	0x3b34f4a5	0.002761164
46	0x3d0a4fa0	0.033767343
47	0xbccbc6ab	-0.024875006
48	0xbcde336a	-0.027124126
49	0xbd0bc2df	-0.03412139
50	0xbd0477fc	-0.03234099
51	0x3c88bf8a	0.016692895
52	0xbcf2757a	-0.029597033
53	0x3cf91edc	0.030410223
54	0xbcd257e7	-0.02567668
55	0x3ce81893	0.02833203
56	0x3ce4322e	0.027855959
57	0xbc2ebaaa	-0.010664621
58	0xb9d966ca	-0.0004146605
59	0x3ca5a690	0.020221025
60	0xbcc79391	-0.024362357
61	0x3ccd3ac4	0.025052436
62	0x3b3d88fd	0.0028920763
63	0xbcf3dc15	-0.02976803
64	0xbc678bed	-0.014132482
65	0x3c8a9279	0.016915547
66	0xbc594ff3	-0.01326369
67	0xbca89075	-0.020576695
68	0x3ce6cc23	0.028173512
69	0xbc4fa26b	-0.012673001
70	0xbadf45de	-0.0017034372
71	0x3bc87f20	0.00611867
72	0xbccc482a	-0.024936754
73	0xbbddf043	-0.006773026
74	0xbcb191a3	-0.02167589
75	0xbcb1535c	-0.021646194
76	0xbc38cb59	-0.011278951
77	0x3cc26e1f	0.02373415
78	0x3c5e5cf6	0.013571968
79	0xbb9c32ea	-0.0047668116
80	0xbb081f24	-0.0020770514
81	0x3bbdb467	0.005789328
82	0x3d06dbe3	0.032924544
83	0x3c9f8f27	0.01947744
84	0xbc71507c	-0.014728662
85	0xbcf9c1e3	-0.03048796
86	0x3cf5463c	0.029940717
87	0xbd005709	-0.031333003
88	0x3ca55856	0.020183723
89	0x3d047be1	0.032344703
90	0x3c869e7a	0.01643299
91	0x3b8da225	0.0043223076
92	0xbcbaf86c	-0.022823535
93	0xba130985	-0.00056090235
94	0xbcfee350	-0.03111425
95	0xbd0b55f0	-0.034017503
96	0xbc08c0ad	-0.008346719
97	0x3c948fc4	0.018134959
98	0xbc3b7375	-0.011441101
99	0x3d0cae3b	0.034345847
100	0x3ca63485	0.020288715
101	0x3d27933a	0.04091189
102	0x3cb6bf1b	0.022307923
103	0x3ae18243	0.0017204959
104	0x3b7c34da	0.003848365
105	0x3d13f058	0.03611788
106	0xbcd628b1	-0.02614245
107	0xbd0793bd	-0.03309988
108	0xbbf03819	-0.007330906
109	0xbb69b8f7	-0.0035663226
110	0x3d006f0a	0.031355895
111	0xbbaa9cc0	-0.0052066743
112	0x3c281e7c	0.010261174
113	0xbbc075da	-0.005873424
114	0x3d0c8c7b	0.03431366
115	0xbc6a042f	-0.014283224
116	0xbc364e15	-0.011127015
117	0xbc8d3ce2	-0.017240945
118	0xbccc3eea	-0.024932344
119	0xbcb34c39	-0.021886932
120	0xbc0fe890	-0.008783475
121	0x3ce74bcf	0.02823439
122	0x3c7d575b	0.015462722
123	0x3abb9824	0.0014312309
124	0xbd0b0f59	-0.033950184
125	0x3b73d9bb	0.0037208635
126	0xbd087941	-0.03331876
127	0x3ca3664d	0.019946242
128	0xbc22327a	-0.00989973
129	0xbc1b2653	-0.009469586
130	0xbcb14c43	-0.02164281
131	0x3b2a84b4	0.0026019039
132	0x3d200d68	0.039075285
133	0x3b498dcf	0.003075469
134	0xbb18b272	-0.002329972
135	0x3d099025	0.033584733
136	0x3c835a24	0.016034193
137	0xbcbbea35	-0.022938827
138	0xbcc5341c	-0.0240727
139	0xbad4610b	-0.0016203237
140	0xbc620838	-0.013795905
141	0xbcdb6b8a	-0.026784677
142	0x3c9eda5f	0.019391237
143	0x3c60bd65	0.01371703
144	0xbd01f59b	-0.03172837
145	0x3cb59b65	0.022168824
146	0xbb4f4551	-0.003162701
147	0x3b43fcf0	0.0029905401
148	0x3c6bb918	0.0143873915
149	0xbcd762d3	-0.02629224
150	0xbd32677d	-0.043555725
151	0x3bbed5d3	0.0058238297
152	0xbccb0690	-0.024783403
153	0xbc65e074	-0.014030565
154	0xbd7f6e6f	-0.062361177
155	0xbd4c940d	-0.04994588
156	0xbd80de39	-0.062923856
157	0xbd59f2b7	-0.053209987
158	0xbced5c42	-0.028974656
159	0xbc41688f	-0.011804714
160	0xbbd22646	-0.006413254
161	0x3b5a54dc	0.003331474
162	0x3cc386c3	0.02386797
163	0x3c4d8ff2	0.012546526
164	0x3bde94a0	0.00679262
165	0x3cee3691	0.029078754
166	0x3c66af2e	0.014079852
167	0xbc2e948d	-0.010655534
168	0x3ccb7fb5	0.024841169
169	0xbcf0c3ee	-0.029390302
170	0x395778eb	0.00020549043
171	0xbbab4155	-0.005226294
172	0x3d0ae0aa	0.033905663
173	0x3b86d813	0.0041151135
174	0xbcb53e1b	-0.02212434
175	0x3d11ec37	0.035625663
176	0x3d0377d9	0.032096718
177	0xbbbfad0f	-0.0058494876
178	0xbd194e5f	-0.037428256
179	0xbca75452	-0.02042595
180	0xbd422bf5	-0.047405202
181	0xbd8ca494	-0.06867328
182	0xbd74259f	-0.05960619
183	0xbd52e80e	-0.051490836
184	0xbda7cd60	-0.08193469
185	0xbd69a3a9	-0.057040844
186	0xbbd6b8c7	-0.006552789
187	0xbc225f69	-0.009910443
188	0x3cb7dbb3	0.022443628
189	0xbca63363	-0.020288175
190	0xbc59ea96	-0.013300559
191	0xbcd3e3d0	-0.025865465
192	0x3c83e78c	0.016101621
193	0xbb8eb79c	-0.004355384
194	0xbc678cf1	-0.014132724
195	0x3c14765f	0.009061425
196	0xbcf212dc	-0.029550008
197	0x3c90dab4	0.01768241
198	0xbcd8d734	-0.026469804
199	0xbbbcaa87	-0.005757633
200	0x3c59cc48	0.013293333
201	0xbc9ca25d	-0.01912039
202	0x3b1859d9	0.0023246913
203	0x3cf41caf	0.029798834
204	0xbc261b6b	-0.010138373
205	0x3ce3ce1e	0.027808245
206	0xbc66d2b1	-0.014088319
207	0xbcbd6d21	-0.023123326
208	0xbd051bd7	-0.032497253
209	0xbd6ce33d	-0.0578339
210	0xbcdc5916	-0.026897948
211	0xbd19a7cf	-0.03751355
212	0xbd7779de	-0.060418956
213	0xbd7a09f6	-0.061044656
214	0x3c3a0ce0	0.011355609
215	0x3ce4d4f5	0.027933577
216	0x3bcf7eb3	0.0063322424
217	0x3c6001b9	0.013672286
218	0x3c1b70c2	0.009487333
219	0x3c873735	0.016505817
220	0xbcc4403f	-0.023956416
221	0xbc02c01b	-0.007980372
222	0xbcfc7755	-0.03081862
223	0xbcb3fbbc	-0.021970622
224	0xbd0176d6	-0.03160747
225	0x3c47f36f	0.012204035
226	0xbbd4b50c	-0.006491309
227	0xbc953983	-0.0182159
228	0x3c21f0ab	0.00988404
229	0x3d033143	0.0320294
230	0xbc36e825	-0.011163746
231	0x3d3ac918	0.045601934
232	0xbc6bf34d	-0.014401269
233	0x3c22db65	0.009940003
234	0xbc36f108	-0.011165865
235	0xbd15c2b5	-0.03656264
236	0xbc645beb	-0.013937931
237	0x3c8fd258	0.017556354
238	0xbcbaa40a	-0.022783298
239	0x3c9f34b4	0.01943431
240	0x3c098665	0.008393859
241	0xbc2a7d5c	-0.010405865
242	0x3c3c3371	0.011486874
243	0xbd0a2bd1	-0.033733193
244	0x3cb19fe1	0.021682682
245	0x3c2c6a82	0.01052344
246	0xbd3175a7	-0.043325093
247	0xbcac580f	-0.021038083
248	0xbc934a56	-0.017979782
249	0x3cd4f308	0.025994793
250	0xbcf7daba	-0.030255664
251	0xbab616fc	-0.0013892348
252	0xbc62b703	-0.013837579
253	0xbc56591d	-0.01308277
254	0xbb933ee7	-0.0044935825
255	0x3d017251	0.03160316

bias f4 [64]
0	0x3e18b7b0	0.14913821
1	0x3d34c36e	0.04413169
2	0x3cc04459	0.02347009
3	0xbd3a3c9d	-0.04546796
4	0x3dd613ff	0.10453033
5	0x3c11f689	0.008908876
6	0x3d0a6472	0.0337872
7	0xbdb092cc	-0.08621749
8	0x3dbe89cd	0.09303627
9	0x3d7573a9	0.059924755
10	0x3d7ed033	0.062210273
11	0x3bbf2fec	0.00583457
12	0x3c6d6e00	0.014491558
13	0x3da0a2bc	0.07843539
14	0xbc972485	-0.018450031
15	0x3d29e522	0.041478284
16	0x3d41d72f	0.047324356
17	0x3d54a1d7	0.051912155
18	0x3c120a51	0.008913592
19	0xbb1dd953	-0.0024085834
20	0x3cd7f956	0.02636401
21	0x3d6ce9b9	0.057840083
22	0x3d8f634b	0.070013605
23	0x3d265edc	0.04061781
24	0xbda7de29	-0.081966706
25	0x3d9b477d	0.07581995
26	0x3cafb24a	0.02144732
27	0x3c54413c	0.012955006
28	0x3cdd1825	0.026989052
29	0x3ceb2647	0.028704775
30	0xbc87fd3e	-0.016600247
31	0xbc2a4f4e	-0.010394884
32	0x3d7afdf8	0.06127736
33	0xbc82b29e	-0.015954312
34	0xbc438522	-0.011933597
35	0x3da272ca	0.079320505
36	0x3b8f2882	0.0043688426
37	0x3d68f735	0.05687638
38	0x3b61cfb4	0.0034456076
39	0x3d711a09	0.05886272
40	0x3c930734	0.01794777
41	0x3b2015d6	0.0024427078
42	0x3cb7cd0d	0.022436643
43	0x3c96da14	0.018414535
44	0x3c750ceb	0.014956693
45	0xbc00e253	-0.00786646
46	0x3e13fe1f	0.14452408
47	0x3d61babd	0.055109728
48	0xbb49516a	-0.0030718693
49	0x3bdec723	0.0067986413
50	0x3dc74226	0.09729414
51	0x3bd4e4ac	0.0064969864
52	0x3d8a05fe	0.06739424
53	0x3d44ee8a	0.04807905
54	0xbd3dff62	-0.04638613
55	0xbc7220d3	-0.014778334
56	0x3d7a88dd	0.06116568
57	0x3c1a62af	0.009422942
58	0x3c8ee83c	0.017444722
59	0x3ddbb1d1	0.10727275
60	0x3cbf68f9	0.023365485
61	0xbca886be	-0.020572063
62	0xbd71309c	-0.05888425
63	0xbbc9cbf0	-0.0061583444

weight f4 [10, 64]
0	0xbe8ac3b3	-0.27102432
1	0x3e6453e3	0.22297625
2	0xbe58644b	-0.21132009
3	0x3e3d14cf	0.18464969
4	0xbe7e1b36	-0.24815068
5	0x3e7c21c1	0.24622251
6	0x3eb884f1	0.36038926
7	0x3d8c3a2d	0.06847034
8	0xbe97be5b	-0.29637417
9	0xbe60dc88	-0.21959126
10	0xbdf6c925	-0.12050084
11	0xbe77ad85	-0.24187286
12	0xbcc498cb	-0.023998639
13	0xbd06f377	-0.03294703
14	0x3e1fc688	0.15603077
15	0xbd3325a1	-0.043737058
16	0xbe5926cd	-0.21206208
17	0xbee5c5a9	-0.44877365
18	0xbe5c6ecc	-0.2152664
19	0xbe3c8e5f	-0.18413685
20	0xbe6898dd	-0.22714563
21	0xbd0971aa	-0.033555664
22	0xbdbe593a	-0.09294362
23	0x3d4c3ed3	0.0498646
24	0xbe2f4a0f	-0.17118095
25	0xbe227ddf	-0.15868329
26	0xbe236cef	-0.15959524
27	0x3e332bc5	0.17497166
28	0x3dae5811	0.08512891
29	0xbe80a2cf	-0.25124213
30	0x3dab7a1f	0.08372902
31	0xbd8d24eb	-0.06891807
32	0x3e145c99	0.14488448
33	0xbcd95b08	-0.026532665
34	0xbccc97d2	-0.024974737
35	0x3ea2eee7	0.31822893
36	0xbd5f1042	-0.054458864
37	0xbe250e7d	-0.16118808
38	0x3e746a66	0.23868713
39	0xbe3cd20a	-0.18439499
40	0xbe190cdc	-0.14946312
41	0x3e6112da	0.21979848
42	0xbe7fb72c	-0.24972218
43	0xbe39242f	-0.18080209
44	0x3da7c7bb	0.081923924
45	0x3e9d8fe4	0.30773842
46	0xbe941cf7	-0.28928348
47	0xbd52988d	-0.051415015
48	0x3e78d310	0.24299264
49	0xbe7fe833	-0.2499092
50	0xbd799117	-0.060929384
51	0x3e77c6a7	0.24196874
52	0x3eb46489	0.35232952
53	0x3d46a68d	0.04849868
54	0xbda710f3	-0.0815753
55	0xbd88663d	-0.066601254
56	0xbe6045b4	-0.2190159
57	0xbde53ada	-0.11192866
58	0xbe2b271e	-0.16714141
59	0x3e50a884	0.20376784
60	0x3ef406aa	0.47661334
61	0x3da4e555	0.08051554
62	0xbd49b946	-0.049248956
63	0xbd55256c	-0.05203764
64	0x3e608a02	0.21927646
65	0xbe7d986d	-0.24765177
66	0x3eb08b73	0.3448139
67	0xbe49703e	-0.19671723
68	0x3e8d43bb	0.27590737
69	0xbe3c7ba5	-0.18406542
70	0x3df1bac8	0.11803204
71	0xbe7b4b20	-0.24540377
72	0xbe7db713	-0.24776869
73	0x3d0eace7	0.03483286
74	0x3eb6df0b	0.35717043
75	0xba424629	-0.00074109674
76	0x3e76cb6b	0.24101035
77	0x3cb94620	0.022616446
78	0x3cb96326	0.022630285
79	0xbd16d5d2	-0.03682501
80	0x3e403ec1	0.18773939
81	0x3eb6f9d6	0.35737485
82	0xbdb39d7b	-0.087702714
83	0x3dd010ea	0.10159476
84	0xbca2dce0	-0.019880712
85	0x3e163c6a	0.14671484
86	0x3c3de64c	0.011590552
87	0xbecf5039	-0.40490893
88	0xbe363774	-0.17794591
89	0x3d960521	0.07325197
90	0xbcbb3bd9	-0.022855686
91	0xbcd037b0	-0.025417179
92	0x3dbee164	0.093203336
93	0xbe3f0d8d	-0.18657513
94	0x3cef95a8	0.029246166
95	0xbc59cdfd	-0.01329374
96	0xbdd410a5	-0.10354737
97	0xbc228347	-0.009918994
98	0x3daac270	0.08337867
99	0xbed006b7	-0.40630123
100	0xbdcb06c3	-0.09913399
101	0x3f00c24d	0.5029648
102	0xbe19a274	-0.15003377
103	0xbde41889	-0.11137492
104	0x3e4ee1c5	0.20203312
105	0xbd9dc9da	-0.07704516
106	0xbe551c12	-0.20811489
107	0xbd4e8b5c	-0.050425872
108	0x3d412863	0.047157656
109	0xbda4b66c	-0.08042607
110	0x3ed39bc6	0.41329783
111	0xbdf8d798	-0.12150496
112	0x3e0159fd	0.12631984
113	0x3ec3f436	0.38272256
114	0xbe714637	-0.23561941
115	0x3cb4161f	0.021983204
116	0xbe92a083	-0.28638086
117	0x3d2cab84	0.042155758
118	0xbe5d065d	-0.21584459
119	0x3d1d0a61	0.038339976
120	0x3ddfb1f2	0.10922612
121	0xbdd5bbab	-0.104361854
122	0xbd2d39e1	-0.042291526
123	0xbed6d014	-0.41955626
124	0xbeb9339a	-0.3617218
125	0xbeb61a0d	-0.3556675
126	0x3d2e606e	0.04257243
127	0xbd851d06	-0.064996764
128	0xbddc954b	-0.10770663
129	0x3e5c8822	0.21536306
130	0x3ead4731	0.33843377
131	0x3cc99217	0.024605794
132	0xbd2bb8ce	-0.04192429
133	0x3e547f8f	0.20751785
134	0x3da624bd	0.08112476
135	0xbe7b33f2	-0.24531534
136	0x3e17685f	0.14785908
137	0x3e5e2e8c	0.21697444
138	0xbe418198	-0.18897092
139	0xbe4a86e4	-0.19778019
140	0x3e980aab	0.2969564
141	0xbe87dde7	-0.26536486
142	0x3eb95bf2	0.3620296
143	0xbe1825e3	-0.14858203
144	0x3e4ef0e2	0.20209077
145	0xbeab29b6	-0.3343026
146	0xbe5d9b73	-0.2164133
147	0x3d8631c0	0.06552458
148	0x3e9ebcc5	0.31003395
149	0xbe06bfa4	-0.13159043
150	0xbdd5c013	-0.10437026
151	0xbe94a5ea	-0.29032832
152	0x3e5d7f33	0.21630554
153	0x3cea945d	0.028635198
154	0xbd391f8d	-0.045196105
155	0x3ddb36a3	0.107037805
156	0xbd12aa07	-0.035806682
157	0x3dfb23a0	0.12262654
158	0xbcea1c0e	-0.02857783
159	0xbdbecf75	-0.09316913
160	0xbea4833c	-0.32131374
161	0x3d758240	0.05993867
162	0xba9b18d0	-0.0011832956
163	0xbe9a84a8	-0.30179334
164	0xbe160e8a	-0.14653984
165	0xbe8c3935	-0.27387396
166	0xbe673c72	-0.22581652
167	0x3bce2be6	0.006291854
168	0x3d6ea38b	0.058261435
169	0x3de7fd2c	0.113275856
170	0xbdadb1be	-0.08481167
171	0xbe638ccf	-0.22221683
172	0xbdbc0359	-0.09180326
173	0x3ee8c7a5	0.45464817
174	0x3e8b145e	0.27163976
175	0x3df5c88f	0.12001144
176	0x3e8c4878	0.2739904
177	0x3e293a8c	0.1652624
178	0xbdcad9ad	-0.099047996
179	0x3e31cef6	0.17364106
180	0xbe59b600	-0.21260834
181	0xbdc04d8a	-0.093897894
182	0x3e87ecb7	0.26547787
183	0xbe3c564f	-0.18392299
184	0x3eb431ae	0.35194153
185	0x3dd83420	0.10556817
186	0xbd5b50fa	-0.053544022
187	0xbc989245	-0.018624434
188	0x3e536e78	0.20647609
189	0xbd8652b2	-0.06558742
190	0xbe3a8985	-0.18216522
191	0x3c13b4d3	0.00901528
192	0xbda2b66b	-0.0794495
193	0xbb473ee8	-0.0030402485
194	0x3e9c0058	0.30469012
195	0x3e85291e	0.26007932
196	0x3d272568	0.040807158
197	0x3e2f15d9	0.17098178
198	0x3e47899d	0.19486089
199	0x3dd0107b	0.101593934
200	0x3cb7a2ef	0.02241656
201	0xbde9362d	-0.11387286
202	0xbe302c78	-0.17204463
203	0xbe8325a7	-0.25614664
204	0x3dc3908c	0.095490545
205	0x3e7b57db	0.24545233
206	0x3e6a9cab	0.22911327
207	0xbbbf96a2	-0.0058468143
208	0x3e8f10c9	0.27942494
209	0x3e65d588	0.22444737
210	0x3d55c41d	0.05218898
211	0x3bb48397	0.005508851
212	0xbea4509b	-0.32092747
213	0xbe20c74c	-0.15701026
214	0xbd65d874	-0.05611463
215	0x3e64fdc6	0.22362432
216	0x3ed70474	0.41995585
217	0xbd738d8b	-0.059461158
218	0xbe32f674	-0.17476827
219	0x3e53abbe	0.20670983
220	0xbd112d09	-0.03544334
221	0x3e2dea46	0.169839
222	0x3dad3eb1	0.08459223
223	0x3c6ed8e5	0.014578079
224	0xbc951041	-0.018196227
225	0xbdba2cd1	-0.09090579
226	0xbd5fe532	-0.054661937
227	0xbe885a1c	-0.26631248
228	0xbe557871	-0.20846726
229	0xbe065e1a	-0.13121834
230	0x3d2a3721	0.04155648
231	0x3e6d292e	0.2316024
232	0x3e929a5c	0.28633392
233	0xbe7f632b	-0.24940173
234	0xbe2cc06b	-0.16870277
235	0x3e94a4f9	0.29032114
236	0xbe57fce1	-0.2109256
237	0xbe58cc8c	-0.21171778
238	0xbda47d23	-0.080316804
239	0x3e4227de	0.1896052
240	0x3ecf6bd3	0.4051195
241	0xbe12b916	-0.14328417
242	0xbe989e61	-0.29808334
243	0xbe71f903	-0.23630147
244	0xbe3e6f17	-0.18597065
245	0xbe2c6cec	-0.16838425
246	0xbe33bbfe	-0.17552182
247	0xbe223196	-0.15839228
248	0x3c89a6ff	0.016803263
249	0x3deeca7a	0.11659713
250	0x3e35a173	0.17737369
251	0x3e509942	0.20370963
252	0x3d024f6a	0.031814016
253	0xbe84bbce	-0.25924534
254	0x3d951ecf	0.07281267
255	0x3db87232	0.09006156

bias f4 [10]
0	0xbd8c8912	-0.068620816
1	0x3e0e4545	0.13893612
2	0xbe2b0cff	-0.16704176
3	0xbcc52b2d	-0.02406844
4	0xbd2665b7	-0.040624347
5	0x3e4b2c6c	0.19841164
6	0x3c9716b1	0.018443437
7	0x3e4cb027	0.19989072
8	0xbe9bb88a	-0.3041423
9	0x3d8fa352	0.07013573
