Pytorch101/model/mnist_model.pth (torch, 213360 bytes, 6 tensors)

model.0.weight f4 [64, 784]
-0.012551998 0.033394948 -0.035243973 -0.035078242 -0.0007016404 -0.01446059 0.033646017 0.026138937
-0.0137852905 -0.021065589 -0.014123781 -0.02327269 0.03010188 -0.013152609 -0.007947365 -0.024102118
-0.021784725 -0.004388218 -0.018316653 0.017662084 0.009345089 0.03136552 0.0070565557 0.0038589411
0.016842693 0.03084486 -0.00070680893 0.010706553 0.022991454 -0.019469976 -0.018289804 -0.0053237593
0.0229072 -0.02665664 -0.068807594 -0.3584932 -0.52225834 -0.41378698 -0.3199177 -0.013674988
-0.2457384 -0.7130346 -0.13882501 0.266828 0.7136988 0.073435694 -0.20452264 -0.21930367
-0.08055956 -0.2408383 -0.20597845 -0.15027863 -0.008257053 0.034418084 -0.027160028 0.033212535
-0.019332862 0.034335513 0.019482264 0.0057820724 -0.088396035 -0.056808885 -0.4397423 -0.828351
-0.35193098 -0.32477114 0.80446804 1.182693 0.62096614 0.8801163 -0.033674754 -0.31097782
-0.61578786 -0.43091124 0.013694494 -0.6019276 -0.31143048 -0.023425141 0.020950204 0.5544049
0.6186801 0.36425766 0.0096094655 -0.0311824 0.0020630234 -0.030942436 0.34045023 0.27898926
-0.8482252 -0.43485555 0.22381078 -0.56472385 -1.4186 -0.7283691 -0.012787232 0.27630317
0.77878475 0.5503792 -1.4308639 -1.6401076 -1.5512015 -0.5438218 0.85693014 -0.4076193
-0.9163589 -1.7400548 0.11028716 1.0564377 0.65332174 0.18759733 -0.18456095 0.015938573
0.031687483 0.025484534 0.34547397 0.320139 -0.6446398 -0.58381367 -0.09085342 -0.63457257
0.37223005 0.9718923 -0.14124893 -0.96772915 -0.97886217 -1.1271762 -0.92331165 -0.3682389
0.019014433 0.42368707 0.102824874 -0.82435817 -0.02412122 0.21682128 0.8943552 -0.9358107
-0.8248885 -0.2479643 0.12409984 -0.93487144 0.008569139 0.032384533 0.33054554 0.05952168
0.73311895 1.0343814 0.2740814 -0.6844379 0.23634262 0.1335395 -1.3570597 -1.1029153
-0.52295876 0.3636863 0.29401323 0.4158739 -0.08813754 -0.80867326 -0.7591015 -1.2815102
-1.2344992 0.18345916 0.76808995 -0.4448871 0.36332226 0.43326354 -0.12536184 -1.0832781
-0.033695973 0.0005338533 -0.30339915 -0.70659274 0.7117022 0.12003905 -0.8213088 -0.92572206
-0.10174541 0.7990159 -0.234908 -0.3843356 -0.018195689 0.048173424 -0.5863977 -0.68126917
-0.5005065 -0.59227806 -0.52562815 -0.24320742 0.21417503 0.16409045 0.24748291 -0.36083016
-0.71799606 0.25020337 -0.09843301 0.15546326 -0.015507796 0.20202643 0.33061394 0.026035657
1.1456544 0.6500346 0.60402876 0.893061 0.46200976 0.43596083 -0.17790455 -0.026634857
-0.29228213 0.2517589 -0.5573325 -0.8228233 -0.47947603 -0.33863926 0.031359293 -0.1602838
0.11774864 0.71702677 0.1419129 0.59773415 -0.14319506 -0.08132586 -0.483299 -0.27794147
1.1031524 0.15837437 0.29653406 1.0596921 0.09928127 1.0922343 1.6712604 1.1855103
0.47205785 0.27665225 0.103378065 0.24639949 0.23234814 0.33230555 -0.45228225 -0.3854082
-0.38491502 0.047557436 -0.07147021 -0.76276827 -0.093723446 -0.051404227 0.045316055 0.4901022
0.034585573 1.1548467 0.35814592 0.18495375 0.61327386 0.6833309 0.55563515 0.77454656
00000000: e5a6 4dbc 24c9 083d fc5b 10bd 34ae 0fbd
00000010: 4aee 37ba 1cec 6cbc 68d0 093d 5321 d63c
00000020: b3db 61bc be91 acbc 6e67 67bc 5ea6 bebc
00000030: 3898 f63c 0a7e 57bc aa35 02bc ce71 c5bc
00000040: e175 b2bc 0acb 8fbb ce0c 96bc 13b0 903c
00000050: 251c 193c 2279 003d ae3a e73b 4ae6 7c3b
00000060: b0f9 893c 5cae fc3c 2549 39ba 8a6a 2f3c
00000070: 9358 bc3c 807f 9fbc 80d4 95bc ee72 aebb
00000080: e1a7 bb3c 075f dabc ffea 8cbd 6c8c b7be
00000090: b9b2 05bf e3db d3be 41cc a3be 0f0d 60bc
000000a0: d9a2 7bbe 6f89 36bf 2528 0ebe ae9d 883e
000000b0: f7b4 363f 7465 963d 626e 51be 2491 60be
000000c0: 69fc a4bd 519e 76be 04ec 52be a4e2 19be
000000d0: 9748 07bc faf9 0c3d b57e debc de09 083d
000000e0: f35f 9ebc 65a3 0c3d 4599 9f3c 8a77 bd3b
000000f0: fb08 b5bd 6fb0 68bd e725 e1be d00e 54bf
00000100: 4c30 b4be 6748 a6be 9ef1 4d3f 7c62 973f
00000110: a3f7 1e3f 4d4f 613f 8aee 09bd 7c38 9fbe
00000120: 46a4 1dbf 66a0 dcbe df5e 603c ed17 1abf
00000130: d173 9fbe 15e6 bfbc c39f ab3c 7bed 0d3f
00000140: d261 1e3f fb7f ba3e 0571 1d3c 3c72 ffbc
00000150: ca33 073b fe7a fdbc 7e4f ae3e aed7 8e3e
00000160: 4925 59bf 63a5 debe a72e 653e be91 10bf
00000170: af94 b5bf 6676 3abf 8a81 51bc 9c77 8d3e
00000180: 705e 473f a7e5 0c3f 8c26 b7bf 0cef d1bf
00000190: c58d c6bf e837 0bbf c65f 5b3f 7ab3 d0be
000001a0: 7f96 6abf 1eba debf 3cde e13d 5a39 873f
000001b0: 1840 273f 8419 403e 8cfd 3cbe 9c91 823c
000001c0: bcca 013d f1c4 d03c f7e1 b03e 42e9 a33e
000001d0: 1d07 25bf d074 15bf 5c11 babd 5973 22bf
000001e0: f094 be3e efcd 783f 8fa3 10be 19bd 77bf
000001f0: b696 7abf 4f47 90bf 275e 6cbf cf89 bcbe
00000200: 28c4 9b3c 83ed d83e d995 d23d 2309 53bf
00000210: dd99 c5bc 6606 5e3e 76f4 643f 4a91 6fbf
00000220: e52b 53bf 5aea 7dbe 0f28 fe3d bc53 6fbf
00000230: 9365 0c3c a5a5 043d 443d a93e 01cd 733d
00000240: afad 3b3f 9c66 843f 6654 8c3e 5237 2fbf
00000250: cd03 723e 94be 083e 22b4 adbf 542c 8dbf
00000260: a0e0 05bf 1735 ba3e e788 963e 6ced d43e
00000270: 7481 b4bd 3605 4fbf 7a54 42bf 8708 a4bf
00000280: 1204 9ebf b8dc 3b3e 8ba1 443f 3ec8 e3be
00000290: 6005 ba3e b8d4 dd3e db5e 00be dba8 8abf
000002a0: ca04 0abd 4af2 0b3a 2257 9bbe 43e3 34bf
000002b0: 1e32 363f 09d7 f53d 4b41 52bf 1ffc 6cbf
000002c0: e65f d0bd 4e8c 4c3f b98b 70be a3c7 c4be
000002d0: 200f 95bc 7f51 453d 291e 16bf a867 2ebf
000002e0: 3221 00bf 899f 17bf 918f 06bf 5e0b 79be
000002f0: b350 5b3e 5407 283e 296c 7d3e bbbe b8be
00000300: 97ce 37bf a81a 803e 3f97 c9bd c331 1f3e
00000310: 6914 7ebc 04e0 4e3e 3b46 a93e bb48 d53c
00000320: cea4 923f ab68 263f a1a1 1a3f a59f 643f
00000330: 8b8c ec3e 4236 df3e 9c2c 36be 5831 dabc
00000340: 01a6 95be 8be6 803e 58ad 0ebf 8ca4 52bf
00000350: e27d f5be 2062 adbe 9a72 003d 7021 24be
00000360: 3326 f13d 118f 373f 9e51 113e 1b05 193f
00000370: baa1 12be 2c8e a6bd f772 f7be 584e 8ebe
00000380: 1934 8d3f e42c 223e 50d3 973e fea3 873f
00000390: fa53 cb3d 55ce 8b3f dceb d53f cdbe 973f
000003a0: 91b1 f13e 5da5 8d3e e1b7 d33d 2650 7c3e
000003b0: acec 6d3e f423 aa3e 8a91 e7be 3954 c5be
000003c0: 9513 c5be 96cb 423d f95e 92bd c844 43bf
000003d0: 14f2 bfbd 3d8d 52bd 549d 393d adee fa3e
000003e0: 9aa9 0d3d 04d2 933f e75e b73e 8464 3d3e
000003f0: 84ff 1c3f c6ee 2e3f 1b3e 0e3f af48 463f

model.0.bias f4 [64]
-1.1180011 -0.028136598 0.49307397 0.200172 -0.047808196 -0.064690664 -0.57213825 -0.043039646
-1.1534036 -0.13566948 -0.23265637 -0.14604509 -0.005530093 -0.87818 -0.015872896 0.4198023
-0.5059094 -0.3515313 0.7867744 0.49467972 0.69715303 -0.20441228 -0.21400264 1.5033566
-0.11071447 -0.034036335 -0.9206333 -0.054064136 -0.4972538 -0.046268888 -0.0432494 -0.08080406
-0.06678563 -0.03535525 -0.6634119 -0.5600992 0.7130123 -0.08859537 -0.32824117 0.16213505
-0.509582 -0.2021494 0.30674654 0.43309307 0.030989092 -0.5856302 0.28384697 -0.08743755
-0.25534865 0.04356623 -0.091591164 -0.021862645 0.6557441 0.46981594 -0.6728762 -0.95937794
-0.005770358 -0.039266467 -0.5245054 0.49530223 0.8292549 0.15022807 -0.57037663 -0.03600512
00000000: a91a 8fbf b97e e6bc 3174 fc3e e4f9 4c3e
00000010: 87d2 43bd 8a7c 84bd a777 12bf 574a 30bd
00000020: bba2 93bf f1ec 0abe 793d 6ebe d88c 15be
00000030: c835 b5bb 68d0 60bf e007 82bc 54f0 d63e
00000040: 4783 01bf e9fb b3be 0c6a 493f a946 fd3e
00000050: 9f78 323f 7451 51be 8223 5bbe fd6d c03f
00000060: 45be e2bd af69 0bbd a0ae 6bbf 5b72 5dbd
00000070: 0d98 febe 7284 3dbd 4826 31bd 997c a5bd
00000080: e8c6 88bd abd0 10bd 5dd5 29bf a962 0fbf
00000090: f987 363f 7d71 b5bd 3a0f a8be bb06 263e
000000a0: f773 02bf 4100 4fbe e20d 9d3e 60be dd3e
000000b0: d6dc fd3c dceb 15bf 6454 913e 7512 b3bd
000000c0: 0fbd 82be 8172 323d 2694 bbbd 4a19 b3bc
000000d0: d8de 273f b78b f03e 9d41 2cbf cb99 75bf
000000e0: 4515 bdbb e0d5 20bd fc45 06bf 4198 fd3e
000000f0: 0d4a 543f 63d5 193e 3404 12bf 1b7a 13bd

model.2.weight f4 [32, 64]
-0.076164044 -0.03527942 -0.9067507 -0.7402054 -0.14456402 0.09158079 -0.6692245 0.034214363
-0.45841652 -0.20346975 -1.0191652 -0.06998924 0.30542895 -0.15931806 -0.49381158 0.072247
0.6431875 -0.03486288 0.5858162 -0.26816738 -0.90412956 -0.5991984 -0.02703908 0.2091239
0.1714516 -0.008682385 -0.5945862 -0.021719377 0.18130535 0.055451754 -0.055114243 -0.140915
0.11863691 0.022954116 -0.18828791 -0.5302883 -0.8022205 -0.105691254 0.25049576 0.51197064
0.019152861 -1.4121279 0.041968428 0.40761295 -0.03594941 0.04643992 0.4565353 0.043501023
0.24892001 -1.5867792 0.024066415 -0.15350036 0.21652189 -1.864812 0.49511176 0.5753268
0.68813056 0.07849156 0.3574414 0.16726173 -1.10352 0.13091585 0.19762637 0.12074358
-0.9767244 0.1717595 -0.5320046 0.37096372 -0.09180878 -0.09093193 -0.12076198 -0.012902916
-0.16830078 -0.68541324 0.31469682 -0.7021152 -0.75887555 0.13498677 -0.07611773 0.13611345
0.43022257 0.5868184 -0.5280711 -0.6308684 0.6924515 -0.42168778 -0.09565872 1.4327842
0.42709684 -0.066648275 -0.9009658 -0.028464558 -1.0992674 0.0053906403 0.03722763 -0.0019611986
0.12976834 0.05187586 0.2799265 0.27115253 0.58165115 -0.016194955 -0.5335771 -1.0450776
-0.001928377 -0.4249174 -0.09537819 0.4104717 0.5255868 -0.5416448 0.02639765 -0.056180265
0.37276024 0.10343109 0.0049964623 -0.0646981 -0.62481904 -0.6152062 -0.33957958 -0.23412128
0.1836544 -0.033009347 -0.27656084 0.5338146 -0.035554804 1.1956273 0.19792841 0.09027605
0.3750188 0.053842343 0.23085962 0.3227705 -0.18191451 0.11025937 0.18329367 0.1593946
0.041997172 -0.21211298 -0.70101166 0.464975 -0.90949976 -0.005976752 -0.7885503 0.27067578
-0.027528409 0.14663467 -1.1661191 -0.9501547 -0.6174328 0.27096677 -0.01621032 -0.63852143
0.028244633 -0.0052714045 -0.5929969 0.01717923 0.59469074 0.07095228 0.018816257 -0.11468574
-1.5231991 -0.004268179 0.37420225 0.3987567 -0.6592558 -0.15090172 0.5384676 -0.39937112
0.3744216 -0.23375519 -0.038874086 -1.1705132 -0.10958327 0.27247187 -1.83893 0.06305569
-0.39219227 -1.2461867 -0.0019529382 -0.14594582 0.9829032 -0.26488423 0.3649042 0.9341732
0.22306128 -0.0759517 0.23876494 -0.019222274 -0.071998276 -0.80117893 0.38801047 -0.1789454
-0.68338084 0.0144457435 -1.4859579 -0.6519893 0.016861292 -0.084339954 -0.014668724 0.009480311
-0.017718984 -1.6211576 0.40702337 -0.6454199 0.13880597 -0.0402533 0.24088196 0.23549992
0.43321034 -1.0136218 -0.85416436 -0.8384212 -0.08541899 -0.47946295 -0.021555007 -0.41976303
-0.41450137 0.03479125 -1.9449713 0.19942053 -1.786657 -0.020067288 0.047877528 -0.023219991
-0.11054748 0.08826424 0.25289458 -0.074286535 -0.18158388 0.15825577 -0.8510543 0.5883852
0.0702589 -1.6245822 0.6001446 0.09355832 -0.5802229 0.77630997 0.2059449 0.11092646
0.2423118 0.17734344 0.06621228 0.3866085 -0.34399536 -1.2378062 0.40929046 -0.76110345
0.009419711 0.042689856 -1.501618 0.34156877 -0.7392546 0.16123886 -0.43504888 0.045519017
00000000: e5fb 9bbd 2781 10bd d020 68bf 1a7e 3dbf
00000010: 9708 14be b68e bb3d 4c52 2bbf 5c24 0c3d
00000020: 92b5 eabe 605a 50be 0174 82bf 8556 8fbd
00000030: 2f61 9c3e 4624 23be dfd4 fcbe 3cf6 933d
00000040: f0a7 243f 61cc 0ebd 0df8 153f 3c4d 89be
00000050: 0975 67bf 1165 19bf 1081 ddbc 9324 563e
00000060: 0291 2f3e 9040 0ebc cd36 18bf d6ec b1bc
00000070: 1ca8 393e 6121 633d 79bf 61bd 064c 10be
00000080: e9f7 f23d 450a bc3c 8cce 40be f9c0 07bf
00000090: 535e 4dbf a874 d8bd fb40 803e 8210 033f
000000a0: 76e6 9c3c 9bc0 b4bf 16e7 2b3d a5b2 d03e
000000b0: b03f 13bd c937 3e3d ffbe e93e 212e 323d
000000c0: e3e4 7e3e 951b cbbf ee26 c53c 332f 1dbe
000000d0: eab7 5d3e 29b2 eebf 4a7f fd3e 9e48 133f
000000e0: 5329 303f 2fc0 a03d 8f02 b73e a946 2b3e
000000f0: 2540 8dbf ce0e 063e 915e 4a3e 6948 f73d
00000100: 9c0a 7abf b9e1 2f3e 7431 08bf f5ee bd3e
00000110: 3e06 bcbd 853a babd 0f52 f7bd c166 53bc
00000120: 0a57 2cbe 3e77 2fbf f11f a13e d2bd 33bf
00000130: ab45 42bf f939 0a3e 9de3 9bbd 5361 0b3e
00000140: 2246 dc3e bb39 163f ab2f 07bf 9780 21bf
00000150: 8044 313f 76e7 d7be b8e8 c3bd 7965 b73f
00000160: 70ac da3e e47e 88bd b2a5 66bf 812e e9bc
00000170: cbb4 8cbf f8a3 b03b 007c 183d 7487 00bb
00000180: fee1 043e c87b 543d 8752 8f3e 81d4 8a3e
00000190: 17e7 143f 48ab 84bc 8298 08bf 1ac5 85bf
000001a0: 98c1 fcba c68e d9be a455 c3bd 5929 d23e
000001b0: db8c 063f 3ca9 0abf e23f d83c 471d 66bd
000001c0: 6eda be3e aed3 d33d 5db9 a33b 7080 84bd
000001d0: 24f4 1fbf 277e 1dbf 60dd adbe 7dbd 6fbe
000001e0: e60f 3c3e cf34 07bd 6299 8dbe 13a8 083f
000001f0: eaa1 11bd 510a 993f bfad 4a3e a6e2 b83d
00000200: 7702 c03e ca89 5c3d 7766 6c3e 2d42 a53e
00000210: cc47 3abe aacf e13d 56b1 3b3e 5738 233e
00000220: 3a05 2c3d 2534 59be 8075 33bf 3411 ee3e
00000230: fad4 68bf a1d8 c3bb 6fde 49bf 0496 8a3e
00000240: 4283 e1bc 6627 163e 6443 95bf 573d 73bf
00000250: 1310 1ebf 28bc 8a3e 81cb 84bc 2476 23bf
00000260: 4a61 e73c bfbb acbb a5ce 17bf 75bb 8c3c
00000270: a73d 183f 6e4f 913d 8d24 9a3c 5be0 eabd
00000280: 30f8 c2bf 15dc 8bbb 7097 bf3e d729 cc3e
00000290: fdc4 28bf fb85 1abe 03d9 093f 5f7a ccbe
000002a0: 30b4 bf3e 855d 6fbe 6f3a 1fbd 60d3 95bf
000002b0: 326d e0bd 6f81 8b3e 0f62 ebbf 5723 813d
000002c0: 6dcd c8be 0c83 9fbf bbf9 ffba d272 15be
000002d0: 8b9f 7b3f e89e 87be b9d4 ba3e fa25 6f3f
000002e0: 2d6a 643e 918c 9bbd cc7e 743e 0878 9dbc
000002f0: d573 93bd 101a 4dbf 4fa9 c63e 773d 37be
00000300: 0cf2 2ebf d7ad 6c3c de33 bebf c5e8 26bf
00000310: b120 8a3c 6dba acbd 1655 70bc 4e53 1b3c
00000320: 6727 91bc 1882 cfbf 5e65 d03e 3d3a 25bf
00000330: 2723 0e3e a5e0 24bd c3a9 763e e426 713e
00000340: bfcd dd3e 5cbe 81bf 84aa 5abf c6a2 56bf
00000350: 27f0 aebd 2b7c f5be 2094 b0bc 2eeb d6be
00000360: 8639 d4be 4581 0e3d d2f4 f8bf e534 4c3e
00000370: 2db1 e4bf 2764 a4bc 3a1b 443d da37 bebc
00000380: b866 e2bd e2c3 b43d 667b 813e 8a23 98bd
00000390: 20f1 39be cd0d 223e b2de 59bf 6aa0 163f
000003a0: e6e3 8f3d 4ff2 cfbf 14a3 193f 819b bf3d
000003b0: 7d89 14bf 40bc 463f 38e3 523e 692d e33d
000003c0: 9620 783e 8599 353e 4e9a 873d 8df1 c53e
000003d0: 2920 b0be 6f70 9ebf 858e d13e add7 42bf
000003e0: 2255 1a3c 8fdb 2e3d 0535 c0bf 1ae2 ae3e
000003f0: ca3f 3dbf cd1b 253e babe debe 2672 3a3d

model.2.bias f4 [32]
-0.39692545 0.37455744 0.84654737 -0.061570253 -0.13340646 -0.98033243 -0.54923224 -0.40972805
-0.84628785 0.5964792 1.5992461 -0.28922093 -1.0956767 -1.4973587 -0.9561299 -1.8546518
-0.7206046 -0.39733616 -1.0698442 0.18241535 -1.0563264 -0.46502176 1.1547879 -0.45143294
-0.6259307 -0.455922 0.08854557 -0.21339835 -0.19615747 -0.23385778 -0.008540898 -1.2526325
00000000: d039 cbbe fec5 bf3e 54b7 583f 1731 7cbd
00000010: b49b 08be 11f7 7abf 7c9a 0cbf e0c7 d1be
00000020: 52a6 58bf dcb2 183f 19b4 cc3f c414 94be
00000030: 223f 8cbf 73a9 bfbf eec4 74bf 3b65 edbf
00000040: 8b79 38bf a56f cbbe a8f0 88bf 17cb 3a3e
00000050: b435 87bf 5517 eebe 17d0 933f 3822 e7be
00000060: ff3c 20bf 9c6e e9be 6157 b53d 1985 5abe
00000070: 81dd 48be 6a78 6fbe 1fef 0bbc 4356 a0bf

model.4.weight f4 [10, 32]
-0.5347961 0.012126743 -0.14760835 0.08984632 -0.2322741 -0.48949996 -0.9501811 -0.4082311
-0.1841575 0.33046362 0.0038654928 0.30357438 0.10121942 0.19238853 0.003935955 0.108735524
0.15224919 -0.0018460428 -0.46961015 -0.1429182 0.018864801 0.2655477 -0.025251621 -0.0152292
-1.0026747 -0.011939714 -0.004201882 -0.5498371 0.06642215 -0.59271574 0.07358993 -0.72438085
-0.33993128 -0.34341645 -0.058679722 -0.13275442 -0.04268649 -0.04670493 0.05082999 -0.33845836
0.29687873 -0.3283956 0.00032804738 -0.50546676 0.113701046 -0.5937937 -0.2045635 -1.0784223
-0.44019333 -0.5022606 0.46823165 0.025011051 0.39643613 -0.2602358 0.18187551 -0.40574303
0.15509927 -0.35643128 -0.025302183 0.27324465 0.06374859 0.14709543 -0.12712088 0.041608512
-0.17736849 -0.017895063 0.3447487 -0.27441132 -0.106197946 -0.044369332 -0.71221536 0.19912624
0.3375811 -0.09168263 -0.61397386 0.05332723 0.32985345 -0.33442226 -0.13871495 -0.18300852
-0.0969117 -0.07369842 -0.10882855 -0.25571385 -0.024242286 -0.35899022 -0.20568748 0.012827536
0.14704886 -0.22073327 0.043387454 -0.16118029 0.10982247 -0.065320335 0.01781964 -0.22282355
0.2906984 0.022235654 0.3282555 -0.17326549 -0.43618256 0.06046487 -0.20666236 -0.13725637
-0.1411121 -0.17786951 0.014482017 -0.07532 0.1633322 -0.7112371 -0.18928032 -0.19597171
-0.59519327 -0.15606834 0.19488224 0.16120398 -0.32318076 -0.36796227 -0.23547018 -0.11872072
-0.0031441688 -0.018635625 0.27317253 -0.41031763 -0.31289935 -0.19299218 -0.04088149 0.17057535
-0.18924907 -0.5411198 -0.18298621 -0.1579135 0.42556414 -0.40653926 0.25126785 0.16092487
0.062773705 -0.3408165 0.12780036 0.31303334 0.020976758 -0.94888353 -0.6440092 -0.6546771
0.01643365 0.20144682 -0.22619763 -0.114591904 0.04527404 0.10997355 0.068104826 -0.4850089
-0.27495524 0.12668389 0.014624175 -0.3647532 0.030680941 0.044786084 0.068431795 -0.18342482
0.042162295 0.37799194 -0.47533864 0.1560857 -0.25872767 -0.13173653 -0.07375731 0.23700802
-0.047886457 -0.16719495 -0.035910506 -0.10125988 -0.14228778 -0.21618322 -0.038713317 -0.21666722
-0.030633146 0.02059133 0.19732423 -0.03781644 -0.3142863 0.05781915 -0.10647568 0.34062922
-0.23992994 0.17105259 -0.021128576 0.11626879 -0.19028203 -0.16920331 -0.07930972 0.16018887
-1.2583326 -0.07848031 -0.36358202 -0.47596645 -0.083911866 -0.14221656 -0.6467801 0.11189475
0.16317052 0.30931163 -0.015368194 0.05334241 -0.18481681 -0.23075877 0.089816965 -0.26355076
0.31747994 -0.1357552 -0.2441612 0.23520689 -0.40192053 -0.22136365 -0.18399252 -0.1226303
-0.44743055 0.440547 -0.26373374 0.13934967 -0.13753876 -0.16524275 0.08497839 -0.443538
0.24847637 -0.37096652 0.0008587197 0.06560962 -0.032883853 -0.03794627 -0.2522932 0.034233615
0.09043465 -0.60595477 -0.22980277 -0.3004103 0.12255044 -0.07451596 -0.43251032 -1.1385771
-0.23119605 -0.1722756 0.031569358 -0.5167755 0.25134438 0.17717591 0.07177258 -0.5724283
0.14796889 -0.46659252 -0.5413505 -0.29836297 0.36178914 -0.068115555 -0.13207127 0.14244533
00000000: 66e8 08bf 3faf 463c a526 17be 5901 b83d
00000010: 43d9 6dbe bd9f fabe 123f 73bf ab03 d1be
00000020: c993 3cbe 8732 a93e 3554 7d3b 1a6e 9b3e
00000030: 214c cf3d 8001 453e 2ff9 803b bbb0 de3d
00000040: 36e7 1b3e ebf6 f1ba be70 f0be 2659 12be
00000050: 5b8a 9a3c def5 873e 7ddc cebc e583 79bc
00000060: a557 80bf ca9e 43bc f1af 89bb 20c2 0cbf
00000070: 5608 883d 38bc 17bf 51b6 963d 0671 39bf
00000080: 790b aebe 48d4 afbe 265a 70bd c6f0 07be
00000090: 07d8 2ebd ab4d 3fbd 1c33 503d 6a4a adbe
000000a0: 7d00 983e 7823 a8be c6fd ab39 4566 01bf
000000b0: 18dc e83d dd02 18bf 1879 51be be09 8abf
000000c0: 0561 e1be 2794 00bf 0fbc ef3e fae3 cc3c
000000d0: adf9 ca3e a03d 85be 933d 3a3e 8dbd cfbe
000000e0: 58d2 1e3e 297e b6be 8646 cfbc b9e6 8b3e
000000f0: 9f8e 823d 2fa0 163e fa2b 02be b06d 2a3d
00000100: 16a0 35be ab98 92bc e782 b03e a47f 8cbe
00000110: 4f7e d9bd 9ebc 35bd bf53 36bf c0e7 4b3e
00000120: 6ed7 ac3e 1ac4 bbbd 642d 1dbf a76d 5a3d
00000130: 8de2 a83e 6539 abbe 4b0b 0ebe 9666 3bbe
00000140: a479 c6bd 32ef 96bd 81e1 debd edec 82be
00000150: c297 c6bc 91cd b7be bd9f 52be 962a 523c
00000160: fa93 163e e707 62be 0bb7 313d 720c 25be
00000170: 9aea e03d abc6 85bd 7efa 913c db2b 64be
00000180: 6cd6 943e 8c27 b63c 1b11 a83e 826c 31be
00000190: 5253 dfbe 03aa 773d 4c9f 53be ef8c 0cbe
000001a0: b17f 10be 6d23 36be fb45 6d3c 5f41 9abd
000001b0: 8e40 273e a213 36bf b3d2 41be cfac 48be
000001c0: 965e 18bf 61d0 1fbe 368f 473e a812 253e
000001d0: f377 a5be 8d65 bcbe 181f 71be d923 f3bd
000001e0: 660e 4ebb bda9 98bc 45dd 8b3e 2715 d2be
000001f0: 5834 a0be be9f 45be 5973 27bd 4eab 2e3e
00000200: 82ca 41be d486 0abf bd60 3bbe 14b4 21be
00000210: 8be3 d93e ea25 d0be 2ea6 803e 7dc9 243e
00000220: 808f 803d 807f aebe 19de 023e e845 a03e
00000230: 73d7 ab3c 08ea 72bf c9dd 24bf eb98 27bf
00000240: dd9f 863c 1348 4e3e 5aa0 67be 29af eabd
00000250: 4671 393d d039 e13d 8b7a 8b3d 1653 f8be
00000260: efc6 8cbe 6cb9 013e 3c9a 6f3c eec0 babe
00000270: 9956 fb3c 9d71 373d f825 8c3d b7d3 3bbe
00000280: 5fb2 2c3d 2988 c13e 965f f3be eed4 1f3e
00000290: f477 84be f1e5 06be 130e 97bd 3bb2 723e
000002a0: 9724 44bd 2735 2bbe e516 13bd 5761 cfbd
000002b0: e3b3 11be 225f 5dbe db91 1ebd 03de 5dbe
000002c0: 5df2 fabc 26af a83c 5d0f 4a3e 69e5 1abd
000002d0: 22ea a0be c6d3 6c3d ec0f dabd f466 ae3e
000002e0: 32b0 75be 6928 2f3e d615 adbc 551e ee3d
000002f0: 4bd9 42be a243 2dbe 226d a2bd 8d08 243e
00000300: 0b11 a1bf 49ba a0bd 6c27 babe e0b1 f3be
00000310: fcd9 abbd 38a1 11be 6193 25bf 1329 e53d
00000320: 2c16 273e 185e 9e3e e1ca 7bbc 927d 5a3d
00000330: 9e40 3dbe 074c 6cbe f5f1 b73d 20f0 86be
00000340: bb8c a23e 6903 0bbe 6505 7abe 13da 703e
00000350: 87c8 cdbe 27ad 62be 8968 3cbe 9825 fbbd
00000360: 9e15 e5be 608f e13e 1c08 87be aeb1 0e3e
00000370: f6d6 0cbe 6535 29be 2609 ae3d 6a17 e3be
00000380: 9770 7e3e 53ef bdbe b41b 613a 565e 863d
00000390: 38b1 06bd 8c6d 1bbd 932c 81be 8c38 0c3d
000003a0: cd35 b93d da1f 1bbf 6b51 6bbe 61cf 99be
000003b0: bafb fa3d d39b 98bd fe71 ddbe e5bc 91bf
000003c0: a8be 6cbe 0469 30be df4e 013d 664b 04bf
000003d0: 36b0 803e 9a6d 353e 81fd 923d a98a 12bf
000003e0: 2885 173e 37e5 eebe f295 0abf 08c3 98be
000003f0: 6d3c b93e 2b80 8bbd b13d 07be 30dd 113e

model.4.bias f4 [10]
-0.007643341 -0.77646786 0.042209797 -0.26343492 -0.14199187 -0.041332025 -1.0564083 -0.60943675
1.4515554 0.11974413
00000000: fe74 fabb 99c6 46bf 2ee4 2c3d f1e0 86be
00000010: 5166 11be c54b 29bd 6338 87bf 0c04 1cbf
00000020: 91cc b93f 693c f53d
